models/model.pth (torch, 378536 bytes, 8 tensors)

conv1.weight f4 [32, 1, 3, 3]
000000 84 23 3f 3e 66 2f a6 3e 1e 40 b3 bb 19 25 9b 3e
       0.18665892 0.32458037 -0.00547029 0.3030174
000010 04 f9 e9 3d b7 7f ac be 71 3d fc be 5f 2f 06 bf
       0.11424449 -0.3369119 -0.49265626 -0.5241603
000020 c7 36 8a be ca 37 5e 3d 2c 63 bc be dc 54 36 3e
       -0.26994917 0.054252423 -0.36794412 0.17805809
000030 35 82 5c 3e 07 a1 bc 3e 92 4d d5 be 00 f7 eb be
       0.21534045 0.36841604 -0.41660744 -0.46086884
000040 14 ea 85 bd c6 93 46 3e 0f 50 90 3e bf ef 44 3e
       -0.065387875 0.19392309 0.2818608 0.19232081
000050 0a 59 b4 3e d8 05 1c be 05 27 2a 3e 0a ff a3 3d
       0.3522418 -0.15236604 0.16616447 0.08007629
000060 e0 11 32 be af 77 f7 be ec ea c9 be 44 2d 57 3c
       -0.17389631 -0.483335 -0.39437044 0.013133351
000070 1a 2a ba 3d dd 1c 76 be 79 93 a7 3d 5e f0 5d 3e
       0.090900615 -0.24034448 0.08182425 0.21673724
000080 c1 b6 20 be 93 de 0e bf c2 a2 5b 3e 49 ce 8d 3e
       -0.15694715 -0.5580837 0.21448806 0.27696446
000090 45 7d 73 bd 6b 4c 27 3d 5e 3d 0a 3e db dc 0f 3e
       -0.05944564 0.040844362 0.13499972 0.14049093
0000a0 e8 03 33 be fd 32 7a be 8b 4c 28 3c 74 39 51 3e
       -0.17481959 -0.24433513 0.0102721555 0.20432073
0000b0 64 0a 04 be 59 4a 92 be 6d df d4 be 22 5c df 3e
       -0.12894589 -0.28572348 -0.4157671 0.4362498
0000c0 13 7c ed bd 5f 41 96 be 60 9f 74 be 86 5d 27 bd
       -0.11595931 -0.2934675 -0.23888922 -0.040860675
0000d0 31 a6 8e be a9 57 a0 be 88 41 94 be 4c 8d b0 3d
       -0.2786117 -0.3131688 -0.28956246 0.086207
0000e0 e8 a3 a7 be 97 6f d0 be 8c 88 a5 be 86 9d be be
       -0.32742238 -0.40710136 -0.3233074 -0.37229556
0000f0 3b 42 16 bd a3 90 88 3c 9d 1e 14 bf 1f 36 bc be
       -0.036684256 0.01667053 -0.5785921 -0.3676004
000100 1b 33 55 be 49 f2 2d be 43 7c 63 3e 5b a6 34 3e
       -0.20820276 -0.16986956 0.22215371 0.17641585
000110 30 bf 7d 3e fc bb 2c 3d 26 cf 0c bd 2c bf 89 bd
       0.24779963 0.042171463 -0.03437724 -0.06725916
000120 d4 ea 44 be 9f 69 26 3e ef a9 9f 3d a8 49 00 bd
       -0.19230205 0.16251229 0.07796084 -0.031320244
000130 e6 c0 4f 3e b9 04 8f bd 10 57 ba 3d 92 38 05 be
       0.20288429 -0.06983323 0.09098637 -0.13009861
000140 f1 e4 54 3e a1 5a 33 be 04 8c 11 be ae 6e 59 be
       0.20790459 -0.17515041 -0.14213568 -0.21233627
000150 95 f7 6c be de d4 95 bd 52 a5 c0 be 69 8b 2f be
       -0.2314132 -0.07315992 -0.3762613 -0.17143025
000160 58 7d 7c 3d 75 a6 68 bd ec a1 18 be 1c 57 8f be
       0.061642975 -0.05679937 -0.14905518 -0.27996147
000170 65 79 a6 be 3f 7f 6c be 8a 6f 54 be 28 f7 9b 3d
       -0.32514492 -0.23095416 -0.20745674 0.07615501
000180 ef 5d 6b be 89 c5 00 be ed 86 ec 3e 41 65 96 3e
       -0.22985052 -0.12575354 0.4619669 0.29374126
000190 63 55 92 bd f4 d6 c2 be 1f ee 35 be e5 40 83 bd
       -0.071451925 -0.3805462 -0.17766617 -0.06408862
0001a0 1b 20 96 be d4 42 c7 be d1 2d 71 be 49 88 b7 be
       -0.2932137 -0.38918173 -0.23552634 -0.35846165
0001b0 ed f3 81 be 81 f5 8c bd e2 ad 26 be 1c e4 77 be
       -0.25381413 -0.06882764 -0.16277269 -0.2420811
0001c0 7e ac 0c bd 73 28 d4 3d d7 08 4c bc 23 58 aa bc
       -0.03434419 0.103592776 -0.012453279 -0.02079398
0001d0 7d f1 cd 3e 0a 9e 19 3e 90 69 01 3f 73 ef c3 3b
       0.40223303 0.15001693 0.505517 0.0059794723
0001e0 95 39 7d be f7 92 ac bd 15 03 b5 3e ef 1e a7 be
       -0.24728997 -0.08426469 0.35353914 -0.32640788
0001f0 09 7b cc be d8 94 fc be 1e 6c 86 be 45 68 84 be
       -0.39937618 -0.4933231 -0.26254362 -0.258608
000200 f0 de 43 bc 34 06 80 3d c2 6f 00 3d c5 ce 5e 3e
       -0.011955008 0.06251183 0.03135658 0.21758564
000210 ae 54 c9 3d 79 b7 89 3e b2 7e 64 3d 48 65 6d be
       0.098306045 0.2689779 0.05578489 -0.23183167
000220 4a 79 1b 3e e2 ca 50 3e 72 86 88 be f9 89 27 bc
       0.15182987 0.20389894 -0.26665074 -0.010225766
000230 27 4e 43 3e a6 af 01 3e 85 d8 f5 bd 1a ac 36 3e
       0.19072782 0.12664661 -0.120041884 0.17839089
000240 1f fd c0 be 7a c4 96 3e b4 5d 3f 3e 53 4f 27 3e
       -0.37693116 0.29446775 0.18688089 0.16338854
000250 4c bc 0a 3e c0 85 ab be 64 1e 67 bd a5 78 4d be
       0.13548392 -0.3350048 -0.056425467 -0.20065553
000260 6a 2d 25 be b4 08 56 3e 1b d2 9b bd 48 9c da be
       -0.16130605 0.20901757 -0.07608434 -0.42697358
000270 59 a3 1b 3f 64 c0 15 be 8e bc 89 be 1d 14 ba bd
       0.60796124 -0.14624172 -0.26901668 -0.090858676
000280 bc cf f2 be e6 77 49 be 00 26 7b 3e 11 5d 18 3e
       -0.47424114 -0.19674644 0.24526215 0.14879252
000290 e7 e9 f6 bd 0b 66 58 3d 87 93 20 be 81 c9 ef be
       -0.12056332 0.05283169 -0.15681277 -0.46833423
0002a0 e8 35 ec be 7a 77 d3 be e7 01 3b 3d 49 b6 3a 3e
       -0.46134877 -0.4130209 0.04565611 0.18233599
0002b0 63 7a 10 be 6c 89 9a be f4 9f 84 3e a0 d0 ed be
       -0.14109187 -0.3018297 0.25903285 -0.4644823
0002c0 b0 b3 d8 bd ee 0f e4 be 0b 30 dd be a1 80 2f 3e
       -0.10581148 -0.44543403 -0.43200716 0.17138912
0002d0 8e 06 2f be 1a 44 6b 3e a8 63 b4 be f8 27 e1 3d
       -0.17092344 0.22975197 -0.35232282 0.109939516
0002e0 9c ba 9a 3e 1a 48 c5 be 39 9d 02 3d 85 e6 42 be
       0.30220497 -0.38531572 0.03188822 -0.19033249
0002f0 c1 e4 9d 3e b3 17 0c 3e d5 09 17 3e a8 f5 25 3e
       0.30838588 0.13680916 0.14749844 0.16206992
000300 8a 87 ba be 43 0c 59 be 61 9c d4 bd 83 ae 86 3c
       -0.36431533 -0.21196084 -0.103813894 0.016440636
000310 48 b3 9c 3e 94 ce 70 3d f5 ee 98 3d 42 5c c7 be
       0.3060553 0.05879076 0.074674524 -0.38937575
000320 24 ed 3c bf d9 a0 e2 3e 87 93 59 3e 14 c3 c5 be
       -0.7379935 0.44263342 0.21247683 -0.38625395
000330 78 03 d1 3e 70 5c 36 3e fe 7b 6c be 7e 12 e9 3d
       0.4082296 0.178087 -0.23094174 0.1138048
000340 98 03 96 3e 07 d2 79 3d 55 8b 27 3e 34 c7 c9 3d
       0.29299617 0.060991313 0.16361745 0.09852448
000350 04 4f 01 bf 53 13 02 3f ea 18 a3 be 97 75 c1 be
       -0.50511193 0.50810736 -0.31854945 -0.37785026
000360 ca bd d4 be f7 0c db 3d 6f ff 18 be 24 2c 42 3e
       -0.41551048 0.10695832 -0.1494119 0.18962151
000370 c8 94 dd 3e 0a a1 f1 be 83 a9 f3 be 0e 18 95 3e
       0.43277574 -0.47193176 -0.47590265 0.29119915
000380 7b 81 03 3c 18 0d 74 bd 83 6f bc bd 7d 7d e6 be
       0.008026476 -0.0595828 -0.09200957 -0.45017615
000390 3f 08 e2 bc 0a f0 91 be d7 75 da bd d2 6a df bd
       -0.027591823 -0.28503448 -0.106670074 -0.10909046
0003a0 a5 e5 49 be 84 35 8a 3e 87 14 03 be 42 32 81 3e
       -0.19716509 0.26993954 -0.128008 0.25233656
0003b0 d6 1f 16 3f b7 ee 00 bf d7 eb e6 bd 54 f9 51 3e
       0.5864233 -0.5036425 -0.11275452 0.20505267
0003c0 86 19 ae be 6b 1e f1 be 32 f5 fd be df 28 a7 3d
       -0.34003848 -0.4709352 -0.49601132 0.081620924
0003d0 e3 96 18 bd 0b 15 aa be 19 43 a6 be a6 04 45 bf
       -0.03725327 -0.3321918 -0.32473066 -0.7696022
0003e0 53 ae 60 be 57 3b 68 3d 3d 4a 12 3f 7e 9e 12 3f
       -0.219415 0.056697216 0.5714453 0.5727309
0003f0 47 b4 00 3d 23 d1 c1 be 1d 0e eb be b9 55 0e be
       0.031421926 -0.3785487 -0.45909205 -0.13899888

conv1.bias f4 [32]
000000 c7 dd 93 bb 5d e9 13 be d1 73 ee bd f6 97 00 be
       -0.004512522 -0.1444449 -0.11643184 -0.12557968
000010 95 a3 c7 bd 96 88 5e bc 1c ed 1d bd 78 1d 0f be
       -0.09747998 -0.013582369 -0.038556203 -0.13976085
000020 2d f1 6a be 52 ba f8 3d b2 63 ce bd 59 8b 02 be
       -0.22943564 0.12144913 -0.10077609 -0.1274847
000030 2d f7 f6 bd 09 df 6e be ef f0 b0 be a2 13 86 be
       -0.12058864 -0.23327269 -0.34558818 -0.26186854
000040 54 9d b5 bd 26 80 85 be b6 c7 12 3e 94 50 63 3d
       -0.088678986 -0.26074332 0.14333996 0.055496767
000050 f9 01 33 be f7 e2 93 3c 72 54 ef 3d e7 3d 2a be
       -0.17481221 0.018052561 0.116860285 -0.16625176
000060 81 d8 0c be a5 9d f0 3c 4f 6e 9e be 21 a3 1e be
       -0.13754465 0.029372046 -0.30943534 -0.15491916
000070 83 c1 31 bd b3 7b 78 3d 26 fb 78 be cd 0c 59 bd
       -0.043397438 0.060664844 -0.24314556 -0.052990723

conv2.weight f4 [64, 32, 3, 3]
000000 3f f2 98 bd fd 3e c6 bd 39 31 f2 bc 05 4b 95 3d
       -0.0746808 -0.09679983 -0.029564487 0.072896995
000010 3c 96 2b 3d 45 85 34 3d 1a b6 0f 3e 60 44 57 3e
       0.04189132 0.04407241 0.1403431 0.21022177
000020 11 6c 7f be 33 5e df 3c a9 5e 38 be 4c c7 4c 3d
       -0.24943568 0.027266597 -0.1800486 0.04999475
000030 5d 34 cf 3d af 9b 0a 3e e8 2b 83 bd 67 76 cf 3d
       0.101174094 0.13535951 -0.06404859 0.10130005
000040 0c 38 6b bd 28 62 75 bd cc eb df bd 89 76 55 bd
       -0.057426497 -0.059908062 -0.109336466 -0.052114997
000050 97 6a 4f be c6 2f 1d 3e 56 d8 be 3d d6 a0 09 be
       -0.20255505 0.15350255 0.093186066 -0.1344026
000060 0e 45 ee 3d ba 31 88 bc 46 1f 12 be 8d 28 8a 3d
       0.11634265 -0.016625274 -0.14269742 0.06746016
000070 97 ad 1c be 05 c5 7d bc ff 34 0a 3d ea 82 3b be
       -0.15300594 -0.015488868 0.033741947 -0.18311659
000080 56 48 99 3d 8c 2d 0a be ea 41 3d be 8a 85 fc 3d
       0.074845 -0.13493937 -0.18482175 0.12330158
000090 a3 3a e8 3c 6c ee 34 3d c2 5e ca bd 0b d2 82 bd
       0.028348273 0.04417269 -0.09881355 -0.06387719
0000a0 0f 69 0b bd f1 ed cb bd 32 a0 39 3d c5 5d 00 be
       -0.03403574 -0.09957493 0.04531879 -0.1253577
0000b0 7f 2c 3a bd da d4 fe bd d5 5b d6 bd 00 92 16 be
       -0.04545259 -0.12442942 -0.10466734 -0.14704132
0000c0 f2 d7 89 bd e7 2c 2d be 89 d2 7f bd 6a 44 a9 bd
       -0.067306414 -0.1691166 -0.06245664 -0.08265002
0000d0 16 75 18 be 90 ba 06 be da c9 37 be 41 f1 6e bd
       -0.14888415 -0.13157105 -0.17948094 -0.058335546
0000e0 e8 a0 ea bd 0c e9 7a be 71 02 04 be e5 e1 e5 bd
       -0.11456472 -0.24502963 -0.12891556 -0.112247266
0000f0 e2 78 08 bd 0b 09 15 be a8 5c 0c be 8c 42 2a 3d
       -0.033318408 -0.14554231 -0.1370722 0.04156737
000100 56 13 88 bd b4 83 55 be 19 94 5c bd 66 0c af bc
       -0.06644313 -0.20851022 -0.053852174 -0.021368217
000110 18 1b 37 bc cd d9 86 bd 70 6a 07 be bd fd bb 3d
       -0.011175893 -0.06584511 -0.13224196 0.09179256
000120 32 22 96 3d 47 52 f2 bc 23 25 6a bc ad 44 81 3d
       0.07330741 -0.029580249 -0.014291081 0.06311927
000130 90 06 f0 bd 97 5e 90 3d 8b 0f a9 3b 86 a3 15 be
       -0.11720002 0.070492916 0.0051593236 -0.1461316
000140 98 15 f8 3d 99 6b 26 bd 98 9a 6d bc 89 83 87 bd
       0.12113494 -0.040629957 -0.01450219 -0.06616885
000150 f2 c1 03 be 54 8c 9d bd 4f 09 08 be 4d b2 6b bd
       -0.12866953 -0.07692781 -0.13284801 -0.057543088
000160 51 7c 83 b9 e2 a4 b0 bd 89 8f 37 bd 82 f9 00 bc
       -0.0002507889 -0.08625199 -0.04481462 -0.007871987
000170 ba 72 cd 3c 68 13 c2 bd 84 10 d8 bd 60 e1 cc 3d
       0.02507912 -0.09476358 -0.10550025 0.10003924
000180 9c 0d d4 bd 3c ef a1 3d 35 b3 d6 3d d5 41 af bd
       -0.10354158 0.079069585 0.104834 -0.08557478
000190 a5 ec 14 be ed 45 d9 3c 56 a4 d1 bd 8a 33 37 bd
       -0.14543398 0.026522601 -0.10236423 -0.044726886
0001a0 c9 03 1b bc 51 ee d2 b9 4f 09 8f 3d bf 8f 5b be
       -0.009461352 -0.0004023188 0.06984197 -0.21441554
0001b0 47 8c 0d 3e 4a 39 bb 3c 86 ae 2b 3d 54 c5 0f 3e
       0.13823043 0.022854466 0.041914485 0.14040118
0001c0 b5 8a 58 be 96 a0 a6 3d f4 d1 9e bc 77 7f 9a bc
       -0.21146663 0.08136098 -0.019387223 -0.018859608
0001d0 1a b4 2d 3e 64 79 21 3b ce f5 b9 bd b5 11 9d be
       0.16963235 0.0024639005 -0.09080087 -0.30677572
0001e0 8e bc 15 3e 34 c3 c9 bb ab 2a 89 be b5 14 09 3e
       0.14622709 -0.006157303 -0.26790366 0.13386805
0001f0 05 79 5c bb 26 56 ab be 4c b4 bc 3d 07 6d 59 bd
       -0.003364147 -0.33464164 0.092140764 -0.053082492
000200 78 ad 2f bd b6 b4 8b 3d 9a 16 eb 3c 04 4b 7c bc
       -0.042890042 0.06821577 0.0286973 -0.0153987445
000210 aa e0 c2 3a 1b ff fa bd 3f 8d 0b 3e 67 61 56 3d
       0.001486798 -0.12255689 0.136281 0.052338984
000220 0a a1 69 3d b6 81 90 3d 59 f1 0e 3e 2b 24 33 be
       0.057038344 0.070559904 0.13959254 -0.17494266
000230 0b f5 98 3d 28 bb 76 bd e9 57 12 be ec 41 3e 3e
       0.07468613 -0.06023708 -0.14291348 0.18579835
000240 b2 a1 5e bd 97 2c 00 be bd 2a 0b be 1c e3 c1 3d
       -0.054353423 -0.1251701 -0.13590522 0.09467146
000250 d0 f5 7d 3d 83 dd d1 bd 17 9b 1a 3e 90 3d 72 bd
       0.062002003 -0.10247328 0.15098225 -0.05914074
000260 43 15 97 bd 61 0e e4 3d b5 86 e3 3d 20 f4 a4 3e
       -0.07377102 0.11135555 0.11109678 0.32217503
000270 51 22 69 bd 4c b9 30 3e 83 03 34 3d d7 f4 9e bc
       -0.056917492 0.17258185 0.04394866 -0.019403858
000280 68 89 0c 3e 35 a8 35 be 9b 03 97 bd 88 ea 2f be
       0.13724291 -0.17739947 -0.073737346 -0.1717931
000290 9a 02 10 3d 79 07 c9 bd 13 9e 8f 3c 7c b1 9d bd
       0.03515873 -0.098158784 0.01753143 -0.07699868
0002a0 24 2e 96 3d cf ef 35 3e 3d 4c d7 bd ae 7d 33 bd
       0.073330194 0.17767261 -0.10512588 -0.04382103
0002b0 b1 ba 3f bd 96 75 24 3e e6 02 ba bd bf 96 a7 3d
       -0.046808902 0.1606048 -0.09082584 0.081830494
0002c0 75 de 32 bd c3 2a 8d 3d 23 73 1c 3e 09 af 7e bd
       -0.043669183 0.06892922 0.15278296 -0.062178645
0002d0 07 e7 b5 3d c6 3c ec 3d ff 05 02 be 2d ea f6 3c
       0.088819556 0.11535029 -0.126976 0.03014096
0002e0 68 65 ab 3d 07 0c 89 bd f9 2a c3 bd 47 4f 45 3c
       0.08368951 -0.06691747 -0.09529681 0.012042827
0002f0 8c 9d e5 3b df 30 f2 3d b0 06 db 3c af ec fb bc
       0.0070073064 0.11825728 0.026736587 -0.030752508
000300 01 4e f3 3d 79 59 47 be 68 66 49 bc 90 08 11 bd
       0.118801124 -0.19467725 -0.012292482 -0.035408556
000310 7c bb 9b bd 2a 30 3c 3e 7a 39 78 bd 06 26 24 3e
       -0.07604119 0.18377748 -0.06060169 0.1603013
000320 b8 1c d9 bc e9 ea 1e bd dd 84 ba 3c 88 42 75 be
       -0.026502952 -0.038798247 0.022768432 -0.23951161
000330 10 89 69 bc c6 25 c2 bc a6 b2 af be 1f fb 18 bd
       -0.01425387 -0.023699652 -0.34315985 -0.037348863
000340 d0 b7 c3 3d b2 16 a0 b9 5d 1e a1 3c cf 3f c4 3d
       0.09556544 -0.00030534487 0.019667799 0.09582483
000350 39 ba 1f be 7b 31 a1 3c 20 e0 c7 3d 03 24 f7 bd
       -0.15598382 0.019676914 0.09759545 -0.120674156
000360 94 08 11 3e d4 3f cf bd 43 7b 09 be d2 d5 22 3d
       0.14163429 -0.10119596 -0.13425927 0.039754696
000370 a3 27 fb bd 19 cb 30 bd a7 6d 4f bd 4a 8d 81 be
       -0.122634195 -0.04316244 -0.050641682 -0.25303108
000380 12 df 98 bd f1 9c 01 be 4f 16 f7 bd ed ef 0e 3c
       -0.07464422 -0.12657525 -0.12064802 0.008724195
000390 3b 52 c6 bd e3 19 b5 ba 87 5a 52 3d 90 4a 3d bd
       -0.09683653 -0.0013816919 0.051355865 -0.046213686
0003a0 ab a7 e2 3c 73 3b 68 3d c1 7f a6 3d a0 0c 26 be
       0.027667841 0.05669732 0.08129836 -0.16215754
0003b0 9a a2 9b be 58 67 29 3e 92 c4 19 be e8 8e b6 be
       -0.30397493 0.16543329 -0.15016392 -0.35655904
0003c0 4b 14 a6 3d 6d a4 a7 bd b7 e6 32 be e2 c8 4f 3d
       0.08109339 -0.081856586 -0.17470823 0.050728686
0003d0 d7 81 52 be 2c 4a 9b 3d 01 1a 27 3d 46 3a 06 be
       -0.20557342 0.075825065 0.040796284 -0.13108167
0003e0 8a 27 47 3d c6 b9 a2 3d b4 f9 6c 3d 14 17 08 3e
       0.04862169 0.0794559 0.057855323 0.13290054
0003f0 cb 74 d0 bd a8 33 41 bb 11 ef 0a be a3 5b 08 be
       -0.101785265 -0.0029480252 -0.13567759 -0.13316207

conv2.bias f4 [64]
000000 b2 18 3f bd 6a df a5 bc 4c 9e 67 3c c9 13 5f 3d
       -0.04665441 -0.020248134 0.014136862 0.054462228
000010 28 8f cc bd a6 1c d2 3d fe f2 47 bd 10 07 4b bd
       -0.099882424 0.102593705 -0.04881572 -0.049567282
000020 98 6f 7e bb 48 c5 a5 bc 9f 66 df 3c 21 77 e5 bd
       -0.003882384 -0.020235673 0.027270613 -0.11204363
000030 5b 30 87 bc db b5 05 3d 42 97 6f bd b3 fa df bd
       -0.01650255 0.032644134 -0.05849386 -0.10936489
000040 d7 78 a0 bd 3f 4b b1 bc 1a 65 8d 3d 92 ce 49 3b
       -0.07835548 -0.021642325 0.06904049 0.0030793292
000050 c0 39 85 bb b2 c3 bd bd a0 00 2f bd d1 44 8b bd
       -0.004065722 -0.092658415 -0.042725205 -0.06800235
000060 c9 8a 5b 3c 48 20 35 bd 70 9a 75 3d ee 11 81 bd
       0.013399788 -0.04422024 0.059961736 -0.06302248
000070 46 b9 4d bd d3 79 76 3c 77 1e 86 3c b8 00 12 bd
       -0.05022552 0.015043694 0.016371949 -0.035645217
000080 a5 8f ae 3d 3a 0a 8f 3c 96 29 9f bd 57 60 9e bd
       0.08523492 0.017460931 -0.07771604 -0.07733219
000090 29 2e b0 bd 6f 0c 76 bd 80 91 7d bd 46 5d 61 bd
       -0.08602554 -0.06007045 -0.061906338 -0.055020593
0000a0 ff cf ce bd e8 c9 ae bb c0 67 32 3d 55 87 d8 bc
       -0.10098266 -0.0053341277 0.043555975 -0.026431719
0000b0 16 cf 30 3c 48 1c af bd 72 19 89 bd 7f 78 32 3c
       0.010791561 -0.08550316 -0.066943064 0.010892986
0000c0 a0 6d 7f bd 34 df 4d bd f7 5b cb bc f1 50 61 bd
       -0.062360406 -0.05026169 -0.024824126 -0.055008832
0000d0 a6 86 8b bd 4a 4b ae bd e5 16 a3 bd b3 58 b4 bd
       -0.068127915 -0.08510454 -0.07963351 -0.088059805
0000e0 2d c9 14 3c a9 8b 0d bb 42 e4 d4 bc 9f fc 32 3d
       0.009081167 -0.0021598137 -0.025987748 0.04369795
0000f0 16 b6 7c bc cf 18 88 bd 9a 90 38 bc 28 2b 10 3d
       -0.015424272 -0.06645357 -0.011264944 0.035197407

conv3.weight f4 [128, 64, 3, 3]
000000 0e 26 d7 3a 4b d2 3d 3e 88 04 50 bd bd 36 36 bd
       0.001641454 0.18537252 -0.05078557 -0.044485796
000010 42 12 99 3d 7c 09 60 bd df d4 00 be a3 cf f9 3c
       0.074741855 -0.054696545 -0.12581204 0.030494517
000020 66 ea 1b be be 85 db bd d8 d4 b2 bd ac 57 6f bd
       -0.15226135 -0.10718869 -0.08732003 -0.05843322
000030 9c c3 a1 bc 5b 10 6e bd 4c ff 64 bc 8b d1 1e be
       -0.019746594 -0.058121067 -0.013976883 -0.15509622
000040 d9 9a 9e be 06 a3 b1 3d 19 08 fa 3d ed 7b 87 3d
       -0.30977514 0.086736724 0.12208576 0.06615434
000050 c2 3b b9 bd 64 d7 a8 bd 24 f5 1f be 3c ab 13 be
       -0.09044601 -0.082442075 -0.15620857 -0.1442079
000060 b3 93 78 be c5 3c 26 be 52 d9 cf 3c 55 80 0b be
       -0.24275093 -0.16234119 0.025372181 -0.13623174
000070 cb b1 18 bd d7 1b 1b bc 4f 51 9f bd 85 bb 29 be
       -0.03727893 -0.009467087 -0.0777918 -0.1657544
000080 dd ee bf bd 64 b2 0d be 21 bc 9e bc d0 43 03 be
       -0.093717314 -0.13837582 -0.019376816 -0.12818837
000090 96 51 e6 ba ed 26 e6 3d 49 5e 91 3d dd 9f 03 3e
       -0.0017571922 0.11237893 0.070980616 0.12853952
0000a0 75 8a 89 bd 5b af b5 3c a3 23 f3 3d 65 eb 87 3d
       -0.06715862 0.022178343 0.118720315 0.06636695
0000b0 09 e0 56 bc 0f c3 b6 bd 7c 81 e6 bd c5 6b 4e 3e
       -0.013114938 -0.08923923 -0.11255166 0.20158298
0000c0 0a f3 e8 3c 18 d3 05 bd 5b 82 1c be 13 0c 28 be
       0.028436203 -0.032672018 -0.15284102 -0.16410856
0000d0 b4 09 00 3e ac ee 99 bd b9 12 f7 3c 3a a4 25 3d
       0.12503701 -0.07516226 0.030160295 0.04043982
0000e0 6f b2 b8 3d 35 bd 9d bd c9 e8 0b 3c 73 ec cd 3d
       0.090184085 -0.07702104 0.008539387 0.10054865
0000f0 37 fb ab 3d 49 1e 35 bb 34 b0 e1 3c 20 ae ef 3c
       0.08397525 -0.002763646 0.02754984 0.029257834
000100 9f 41 1a 3e 92 8f 8a 3d f2 4d 8c 3d 2d fb 45 bd
       0.15064095 0.06765665 0.068508044 -0.048335243
000110 25 c3 1b 3d c7 3f a4 3d 96 62 94 3c 80 af 48 3c
       0.0380279 0.08019977 0.018113416 0.012248874
000120 2a ab 14 3e ec 43 a8 3d a0 85 f7 bc cc a9 04 3e
       0.14518419 0.0821608 -0.030215085 0.12955397
000130 40 36 3b 3d 97 73 94 3d 88 dc 36 bc 4a dc a6 3c
       0.045706034 0.072486095 -0.011160977 0.020368714
000140 b3 8b 23 bd 19 aa 52 3d b2 c1 50 3d 96 8d 24 3d
       -0.03992815 0.05143175 0.050965972 0.04017409
000150 f0 06 cf 3d 26 d7 90 3d d9 d6 b7 3d 4b 28 72 bd
       0.10108745 0.07072286 0.08976526 -0.059120458
000160 a6 bd 50 bd f2 78 2b bd bd 4d dd bd da 08 66 bd
       -0.050962113 -0.04186339 -0.10805843 -0.056160785
000170 57 a5 15 3d 6f 18 ad bd 5a 4e b4 be fd 0a 0e be
       0.036534633 -0.08451926 -0.35216027 -0.13871379
000180 7c 5b e9 bd ba b9 a7 bc de 18 3f bd d7 34 78 3b
       -0.113944024 -0.020474304 -0.046654575 0.0037873292
000190 f8 4d 00 be 6b 55 97 be 8f 59 89 bc 39 ba 42 bd
       -0.12529743 -0.29557356 -0.016766338 -0.047540877
0001a0 96 24 1c 3d 5f 2f 9a 3d c6 ad f6 bd 2e a6 99 bd
       0.03812083 0.075285666 -0.120448634 -0.075023994
0001b0 f7 ae 93 3c b9 75 a8 bd 6a cf c0 bd e9 e1 c1 3c
       0.018027766 -0.08225579 -0.09414561 0.023667293
0001c0 38 33 4d bd da fd 8b 3d 5b 5c 9c 3d 7f 61 2c bc
       -0.050097674 0.06835528 0.07634803 -0.010521292
0001d0 9b 78 4a 3d e9 0f a8 be a4 c0 35 3b c5 9c 27 3e
       0.049431425 -0.32824638 0.002773323 0.16368397
0001e0 59 f1 45 bc c4 85 90 bc 32 34 00 bd 85 9f 69 be
       -0.012081468 -0.01764191 -0.031299777 -0.22814758
0001f0 9c 33 a0 bc de 0e 93 3d c8 a7 94 bc 57 d2 95 bd
       -0.01955586 0.0718057 -0.01814641 -0.0731551
000200 e5 0b 15 bd 38 1d ef bd 7e 44 82 bd 1b a9 be 3d
       -0.036388297 -0.11675495 -0.0636072 0.09309598
000210 b9 25 c7 be 7b 6c 88 bd 60 ee d3 3d 93 95 54 3e
       -0.38895968 -0.06661316 0.10348201 0.20760183
000220 14 22 40 3e 46 7a 50 3e 97 2a ac 3c 2b d8 eb bc
       0.18763 0.20359144 0.021016402 -0.0287896
000230 f2 3b 5c 3e 50 af 96 bd c0 50 d7 bd 92 32 9c 3d
       0.21507242 -0.07357657 -0.10513449 0.07626833
000240 4a 21 5f 3d a2 6c 1f 3e f6 a8 96 3d d6 c5 9f 3d
       0.054475106 0.15568784 0.073564455 0.07801406
000250 52 bb 94 3d 2d fe cc bd 05 f0 1e 3d 70 5a 93 3c
       0.07262291 -0.10009418 0.03880312 0.01798746
000260 05 f3 8e bd 7d 78 bb 3c 5c 90 c6 3d 57 ef 07 3e
       -0.06979946 0.022884602 0.09695503 0.13274895
000270 95 8f a6 3c f5 8b 38 3d bc fd ae bd 4a 8d f0 3d
       0.020332137 0.04505535 -0.0854449 0.11745699
000280 2a af 28 be 65 b8 f9 bd 7d 0f 48 bd c3 f5 2d bb
       -0.1647307 -0.121933736 -0.048842896 -0.002654419
000290 5a d2 20 be dc d6 d5 bc da f5 4e be e4 54 25 be
       -0.15705243 -0.02610343 -0.20210972 -0.16145664
0002a0 57 74 74 3d 08 d0 61 be c1 6e 1c be ab 44 8e bd
       0.059681263 -0.22052014 -0.15276624 -0.06946691
0002b0 69 3c 5e 3d 9b b5 78 3e 60 8f 83 bb a3 fe 44 be
       0.05425683 0.24288027 -0.0040148944 -0.19237761
0002c0 5b ea a2 bd 9c 59 34 be 95 7b 54 3d 58 69 01 bd
       -0.07954856 -0.17612308 0.05187567 -0.031594604
0002d0 ab 2f 3b bd f9 6b 3e be bb e3 57 bc 4d 09 c4 bd
       -0.045699757 -0.18595876 -0.013176854 -0.095720865
0002e0 93 0b 67 bd e8 2a fe bd 1d 90 6d 3d 55 da 9a 3d
       -0.056407522 -0.124105275 0.057998765 0.07561175
0002f0 18 1b e3 3d e2 c5 5b 3e a3 27 03 3c 12 e2 27 3d
       0.11089152 0.21462205 0.008005056 0.04098708
000300 28 78 68 3d 28 ea 13 bd 7d 18 23 3e a1 7c 2c 3d
       0.056755215 -0.03611198 0.1592731 0.042111043
000310 56 06 72 3d 4b 62 0e 3d c5 2c 77 bd 1e b7 21 3d
       0.059088074 0.03476171 -0.06034543 0.039481275
000320 a1 e0 d3 bc a3 32 52 bd d5 2e e4 bc f0 40 5b 3c
       -0.025863947 -0.051317822 -0.027854363 0.0133821815
000330 8d 53 ef bd fa b9 a9 be bb 74 61 be f7 95 88 bb
       -0.11685858 -0.331497 -0.22017185 -0.004168268
000340 5f d3 5a 3d c2 86 37 3e 62 68 b7 3d b1 10 a5 3c
       0.053424235 0.179225 0.08955456 0.02014956
000350 89 88 84 bc 93 76 52 be 2b 93 2f 3d dc 98 98 3d
       -0.016178386 -0.20553045 0.04286496 0.074510306
000360 59 7c f1 3c 29 59 cb bb f0 68 ac 3d 03 2e de 3d
       0.029478239 -0.006205697 0.08418453 0.1084862
000370 4f ee 17 bc 6a 54 9c bd c3 bd 1b 3e 16 ee e9 3d
       -0.009273126 -0.07633288 0.15209107 0.114223644
000380 79 52 4d bd 72 a3 cb bd 1b f4 55 be ee 21 31 be
       -0.05012748 -0.09943284 -0.208939 -0.172981
000390 be 3a 22 3d b5 22 ee bb c9 d7 a8 bd 39 72 6d be
       0.039606802 -0.007267321 -0.08244283 -0.23188104
0003a0 6d 9b 12 be 6f 1a 13 be a5 ed ca bd 45 5a f0 bd
       -0.14317103 -0.14365552 -0.09908608 -0.117359675
0003b0 5c 93 99 be 09 2b 9a bd 67 03 a8 bd 4d c6 1b 3e
       -0.2999524 -0.075277396 -0.08203774 0.15212364
0003c0 cc 50 2b bc 56 64 88 3d 67 f2 23 be 7a 0c e6 bd
       -0.010456275 0.066597626 -0.16010438 -0.112328485
0003d0 c4 a8 e6 bd be 7d 39 bd ef 4c 44 be 35 76 30 bb
       -0.11262658 -0.045285933 -0.19169973 -0.0026925926
0003e0 71 72 23 3e 98 62 a9 bd 40 aa 6a 3d af 2e 75 bc
       0.15961625 -0.082707584 0.05729127 -0.0149647435
0003f0 c8 2d 06 bd f3 7d 3f 3b 77 e1 75 bd ad 11 83 bb
       -0.032758504 0.0029219359 -0.060029473 -0.00399991

conv3.bias f4 [128]
000000 fa d1 bd bd a2 fc 58 bd c6 70 b6 bd 70 c9 aa bd
       -0.092685655 -0.052975304 -0.089082286 -0.083392024
000010 ec 6b 25 bd fa 80 db 3c 43 2d 6c bd 86 d7 fd bb
       -0.040386125 0.0267949 -0.057660352 -0.0077466397
000020 0f 01 71 bd e3 36 6a bc 54 07 3f 3c eb bc cb bc
       -0.0588389 -0.014295313 0.011659462 -0.024870357
000030 75 1d 5d bd 49 94 46 bd 83 fb 69 3c aa dc a0 bb
       -0.05398317 -0.04848126 0.0142811565 -0.0049091177
000040 b5 f1 f5 bb a8 c4 0c bd 4f df ab bd a7 88 c7 bd
       -0.0075056204 -0.034367234 -0.08392202 -0.09742861
000050 b1 35 b7 bc 23 96 45 bd 06 8f 0c 3c b4 ac 28 bc
       -0.02236447 -0.048238885 0.008579021 -0.010295082
000060 6f 1b 6d bc b5 ec 97 bc bd 17 03 bd 41 8f 5d bd
       -0.014471873 -0.018545488 -0.03200506 -0.054091696
000070 1a a0 7c bc 96 11 c1 bc 45 23 4b bd 8e 85 ce bc
       -0.015419031 -0.023567956 -0.049594183 -0.025210168
000080 83 4f 01 bd c8 9b 32 3d 9d ad ed bd a9 7d f1 bb
       -0.03156997 0.043605596 -0.1160538 -0.007369716
000090 83 c6 09 bd a6 36 ad bd c3 ec fa bc 3f 7d 23 bd
       -0.03363658 -0.08457689 -0.030630475 -0.039914366
0000a0 f0 e4 d9 3c 9a 84 40 bd e3 fe 47 bd 86 ed e1 bd
       0.026598424 -0.04700146 -0.048827063 -0.11031632
0000b0 aa dd 8c bc d9 0c 20 bd 3a 02 b0 bd cc 13 ab bd
       -0.017195541 -0.039074752 -0.08594175 -0.08353385
0000c0 1c b1 bc 3b f0 52 8d bd 4a 41 36 bd 42 12 a1 bd
       0.005758418 -0.06900585 -0.04449586 -0.078648105
0000d0 67 aa ea bc ac 68 a7 bd 89 cd 72 bd c5 e1 0c bd
       -0.028645707 -0.081742615 -0.059278045 -0.034394998
0000e0 01 95 89 bd c0 05 7f bd fa 0b cd 3b 51 06 c1 bc
       -0.06717873 -0.062261343 0.0062575312 -0.023562582
0000f0 bc 33 bb bc 66 12 61 bd 14 c8 20 bd ac c1 a3 bb
       -0.022851817 -0.054949187 -0.03925331 -0.0049974527
000100 2b 7e ae bd 2f d1 b3 bd 13 2c 6c bd 8b a4 2b bd
       -0.085201584 -0.08780133 -0.05765922 -0.041904967
000110 eb b2 60 bc 34 53 24 bd 85 1a 2a bd 9a a0 19 bd
       -0.013714532 -0.04011841 -0.041529197 -0.037506677
000120 0a 81 8f bc ea da 29 bd 5a 34 26 bd af 58 bf bd
       -0.017517585 -0.04146854 -0.04057727 -0.09343087
000130 61 70 ed 3b 30 d0 ca bc 6b 15 d0 bc ab 88 2b bd
       0.0072460626 -0.024757475 -0.025400838 -0.041878384
000140 68 de 1c bd ec 17 45 bd 2b 33 62 bc 7d 24 17 bd
       -0.03829804 -0.048118517 -0.013806145 -0.036900032
000150 43 92 6d bd 9a 68 eb bb 71 ec e8 bc 8a fa fc bc
       -0.058000814 -0.0071841003 -0.028433057 -0.030881185
000160 62 1a a9 bc d2 a0 3a bc 05 0e f3 bd 7d dc 3d bc
       -0.020642463 -0.011390882 -0.118679084 -0.011588213
000170 43 c3 86 bd 01 17 17 3c 2c c9 1c bd 15 88 00 be
       -0.06580212 0.009221793 -0.03827779 -0.12551911
000180 08 9c 6b 3c c4 f2 3c bd b2 11 45 bd 7b af 97 bd
       0.0143804625 -0.046129957 -0.04811258 -0.07406517
000190 06 40 ac bc 36 51 ed bc ea e6 b8 ba 50 e6 55 bd
       -0.021026623 -0.028969388 -0.0014106904 -0.052221596
0001a0 15 4d 75 bd f5 87 24 bc 32 89 04 bc 47 e6 35 bc
       -0.059887964 -0.01004218 -0.008089351 -0.011102266
0001b0 59 1a c5 ba f5 1c a6 bd 9c 69 17 bd 8f bb 88 bd
       -0.001503776 -0.08110992 -0.03696595 -0.06676399
0001c0 a8 24 cf 3c 59 d1 5f bd 03 94 0b bc c1 68 a2 bd
       0.025286034 -0.05464301 -0.008519175 -0.079301365
0001d0 5f 11 bb bd 98 37 f4 bc 13 f9 1f bd c3 f3 84 3c
       -0.09134173 -0.029811665 -0.039055895 0.016229516
0001e0 ee a7 cf bd 03 fa 9d 3a 22 51 f1 bb 86 7d 66 bd
       -0.10139452 0.0012052659 -0.007364408 -0.056272052
0001f0 0b dc 76 bd 69 11 56 bd df df 96 3c ef 1c 86 bd
       -0.060268443 -0.052262697 0.018417297 -0.065484874

fc1.weight f4 [10, 128]
000000 fd 14 a5 bd e5 7d af 3d 9e d2 2b be 98 c7 df bd
       -0.08060644 0.08568934 -0.16779563 -0.10926741
000010 f8 17 49 3e 7a 45 61 3e 6f 75 7a 3c 9b f9 7e 3d
       0.1963805 0.2199916 0.015286787 0.06224976
000020 ad 61 c7 3c 7a d6 81 3d 50 51 50 be a3 ce 0d bd
       0.024338568 0.06339736 -0.20343518 -0.034620892
000030 2a 9f 5d 3e 6d 6a 69 be 71 69 94 3d 91 e6 05 3e
       0.21642748 -0.22794504 0.07246674 0.13076235
000040 0d 0c bb bd 9f 31 04 be 95 4e 57 bb d9 5f 9b bd
       -0.09133158 -0.12909554 -0.0032853235 -0.07586641
000050 4c 38 44 3d 7e 63 69 3d cf 8d 67 be 0c 7f e1 3d
       0.04790525 0.05697965 -0.2261269 0.110105604
000060 96 6d 79 bc bd e4 45 be 8c e0 94 3d de ea 6f be
       -0.015223881 -0.19325538 0.072693914 -0.23429438
000070 74 81 43 3d 2d b5 e9 3d 0a a0 cb be e9 e0 85 3c
       0.047730878 0.1141151 -0.39770538 0.016342597
000080 10 ab 29 be 7b 91 32 3d f9 d8 5c bc 66 25 87 3c
       -0.16569161 0.043595772 -0.013479465 0.016497325
000090 4e 18 bf 3d 5d 37 53 be cd 31 6b 3d e6 4a 87 be
       0.093308076 -0.20626588 0.05742054 -0.2642433
0000a0 dc 04 cd ba 61 45 65 3d 19 a0 36 bd 19 33 86 be
       -0.0015641707 0.055974368 -0.044586275 -0.2621086
0000b0 8b bd 09 be cf 56 5a be ce c8 5f be bd 73 5b be
       -0.13451211 -0.21322177 -0.21853945 -0.2143087
0000c0 f2 9c 9c 3d d1 01 2a bd d1 25 90 be fa 2d 32 be
       0.076471224 -0.04150564 -0.28153852 -0.17400351
0000d0 54 fa 1c 3d 5d 9f 87 be 05 9e c1 3d 36 02 44 bd
       0.03832467 -0.26488772 0.09453968 -0.04785367
0000e0 7e 7e 00 bd d6 d5 21 be 2c 40 de 3d 11 86 82 3d
       -0.031370632 -0.15804228 0.108520836 0.063732274
0000f0 a3 f9 a5 3d f7 90 5e bd b2 7b 55 3d 1e 09 33 be
       0.08104255 -0.054337468 0.05211992 -0.17483947
000100 1d a9 0f 3e c2 4f 9b be eb 3a b6 3d 5d 89 7c bc
       0.14029355 -0.30334288 0.088979565 -0.015413609
000110 a6 29 1e be 6a 31 cd bb 57 88 1c 3d 3d 1c 82 be
       -0.15445575 -0.006261994 0.03821596 -0.2541217
000120 a6 91 88 be 14 f4 83 be 10 79 a9 3d 6e 20 a0 be
       -0.2667362 -0.25772154 0.08275044 -0.31274742
000130 ff 76 d2 3d 2b 1f 73 3c e3 68 8e 3d 97 4f 22 bd
       0.10276603 0.014838974 0.06953599 -0.039626684
000140 b4 a8 d5 bb 8e a0 a3 bd b9 9c d0 3d 77 76 89 bc
       -0.006520355 -0.07989608 0.101861425 -0.016780121
000150 fb d2 aa bd 6a cd df bd e9 b3 2a 3c a0 db 62 3d
       -0.083410226 -0.109278515 0.0104188705 0.055385232
000160 81 d0 e9 3b 61 67 61 bd b8 1f 77 be 29 87 fa 3c
       0.0071354513 -0.05503023 -0.24133193 0.030582028
000170 74 fc 50 3d 02 ed f2 3d 9d ce a9 3c bc 13 90 bd
       0.051022008 0.11861612 0.020728404 -0.07035014
000180 56 7b a9 3d 53 81 32 3e e4 60 08 bd a2 3c b5 3c
       0.082754776 0.17432146 -0.033295527 0.022123639
000190 2e 64 2a bd c8 2a 49 be c2 19 39 be bc c6 49 be
       -0.041599445 -0.19645226 -0.18076232 -0.19704717
0001a0 8f 7e 1f be b0 a2 84 bc fc 67 8f 3d 0c 1c 8f 3d
       -0.15575622 -0.016190857 0.07002255 0.069877714
0001b0 00 f8 bd bc 0a 92 ff 3d 44 6a dd bd ab 1f 5e be
       -0.023189545 0.124790266 -0.10811284 -0.21691768
0001c0 e8 50 98 3d 00 fd f6 3d ec 36 56 be fe 83 f0 bd
       0.07437307 0.12059975 -0.20919389 -0.117439255
0001d0 d6 a6 89 be 8f 44 f2 3d 7a 74 75 be 0b e2 3a 3d
       -0.26885098 0.11829483 -0.23970214 0.045625728
0001e0 e1 0e a5 be 1f b4 c5 bc b3 fb 9c 3d b2 b3 80 3b
       -0.32237914 -0.02413374 0.07665195 0.0039276714
0001f0 85 2d 2f be 2f a5 43 bc 2d 83 67 bd a3 a1 fb 3d
       -0.17107208 -0.011941238 -0.056521583 0.12286689
000200 24 2f 8c 3c f8 f1 36 3d 02 ef 0e 3d 4f fe 1a 3d
       0.017112322 0.044664353 0.034895904 0.037840184
000210 d5 d3 a6 be dc 07 24 be 9c a5 8f bc 38 5f d1 bc
       -0.3258349 -0.16018623 -0.017535023 -0.0255581
000220 6a 45 f6 ba a2 a5 cf 3d 1b d9 6b 3d d4 af 2d 3d
       -0.0018788998 0.10139014 0.057580095 0.04240401
000230 ed b4 55 be 18 70 0c 3e fe be 9d 3d c4 4c 1b be
       -0.20869799 0.13714635 0.077024445 -0.15166003
000240 86 e0 c8 be 11 be 73 be 67 a1 cc 3d 61 5b f2 bd
       -0.39233798 -0.23802973 0.099917226 -0.118338354
000250 ce ea c8 3d 5e 39 df be d1 2b 9d 3d 89 5f f7 bd
       0.098104104 -0.43598455 0.07674373 -0.12078769
000260 86 6d 3f 3d d1 0f ed 3d 19 e5 c5 3d fa f6 af be
       0.04673531 0.11575282 0.096628375 -0.34368116
000270 7d c7 5a be 16 16 14 be 8a 83 14 3d 10 ca a5 bd
       -0.21365161 -0.1446155 0.036258258 -0.08095181
000280 ed da 94 bd 26 02 32 3e 1d 11 0f 3e b8 fd 8a be
       -0.07268319 0.17383632 0.13971372 -0.27146697
000290 7b ee b5 3b 71 b7 e9 bd b3 a4 05 bd b1 8a b3 bd
       0.0055521107 -0.11411942 -0.032627773 -0.08766688
0002a0 3b db b8 be d7 24 b7 bd f2 83 54 bd ba a1 f2 bd
       -0.3610476 -0.089425735 -0.051883645 -0.11847253
0002b0 c6 52 62 3d b8 f5 ea 3b 48 65 46 be d5 3a 2d be
       0.05525472 0.0071704052 -0.19374573 -0.16916974
0002c0 5c 9c 43 be 17 29 51 3c 93 9f ad 3d 1c 92 9f be
       -0.19102615 0.012766144 0.08477702 -0.3116616
0002d0 28 50 1f 3e 4f f7 2d 3d 7e 0b df 3d 05 af bd bd
       0.15557921 0.04247218 0.10890864 -0.09261898
0002e0 f6 fc 73 bd 0a 9d 2a 3d 70 b4 f3 bd dd 58 96 3c
       -0.059567414 0.04165367 -0.1189965 0.01835292
0002f0 61 8c 50 bd f1 70 20 be 7d a6 8a bc dd a8 7f bd
       -0.050915126 -0.15668084 -0.01692509 -0.0624169
000300 83 41 0d be f3 8b c8 bc e5 52 7a be 6a 5f 8b bd
       -0.13794522 -0.024480795 -0.24445684 -0.06805308
000310 86 a6 c8 be c1 d6 9a 3d c2 fb e6 3d 4c a6 d1 3d
       -0.39189547 0.07560492 0.11278488 0.10236797
000320 45 2e e8 bc 0c 02 34 be 9c c6 b5 bd 6a c0 0c be
       -0.028342376 -0.17578906 -0.08875772 -0.13745275
000330 76 fd b2 3d 7f a6 51 3b 0f 1f d6 be a5 8e 5c bc
       0.0873975 0.0031990109 -0.4182057 -0.0134617435
000340 f3 ef 86 3e 79 37 09 3e 1a f1 0b be 4e 02 4c be
       0.26354942 0.13400067 -0.13666192 -0.19922754
000350 3f 1f bb bc ce 5d 4c bc d0 50 50 be 2b 1a ef bc
       -0.022842048 -0.012473537 -0.20343328 -0.029187283
000360 05 42 a8 be 68 ee 6a bd 27 db b0 3c 61 3b ce 3d
       -0.3286287 -0.05735627 0.021588875 0.100699194
000370 41 12 f8 bd 46 3f d2 3d fe ef 48 be a6 66 14 be
       -0.12112857 0.10265975 -0.196228 -0.14492282
000380 43 a3 3c be 92 c8 7e bd 39 e8 91 3d 9f d8 a6 be
       -0.18421654 -0.062202998 0.07124371 -0.32587144
000390 9e 6d 09 3d 8e b6 85 be 2b a4 a2 3d 11 10 6b bd
       0.033551805 -0.2611584 0.07941469 -0.05738837
0003a0 a5 78 4a 3e aa 1b 6e 3d ec 48 aa bd 2e ba ab be
       0.19772585 0.05813185 -0.0831469 -0.3354048
0003b0 0c b1 2b bd 7e ed 86 be b8 85 73 be 9b b1 ee bc
       -0.041916892 -0.26353067 -0.23781478 -0.029137423
0003c0 a4 b0 b7 be d9 1f 22 be 3c ce cb 3d 77 13 86 39
       -0.35876954 -0.15832461 0.099514455 0.00025572974
0003d0 60 df 60 3d 7a 0a 53 be 80 3f b5 3d f9 82 aa bc
       0.054900527 -0.20609465 0.08850002 -0.020814406
0003e0 38 71 18 bd 5b 4d 43 bd c1 ca fd 3d 7a 0e c0 3d
       -0.03721735 -0.047681194 0.12392188 0.09377761
0003f0 ce cd 2f be ce 14 36 bd dd 9d 98 bd 91 21 0f be
       -0.17168352 -0.044453435 -0.07451985 -0.13977648

fc1.bias f4 [10]
000000 4a ee 5b 3e 90 6e 81 3e fb f0 47 be f0 c9 42 3e
       0.21477619 0.25279665 -0.1952552 0.19022346
000010 c4 2c af bd 86 b4 46 bc 2d 74 04 be 38 dd 15 3e
       -0.0855346 -0.012128001 -0.12934943 0.1463517
000020 f2 4f b5 3c df 22 cf be
       0.022132847 -0.40456292
