models/model.pth (torch, 378536 bytes, 8 tensors)

conv1.weight f4 [32, 1, 3, 3]
0.0939505 0.13397641 0.048664186 0.3146392 -0.093433455 -0.45210454 0.24304272 -0.0007164662
-0.22263664 -0.032424364 -0.45315033 0.028690761 0.26762533 0.36560768 -0.008742942 -0.25547895
-0.32642594 -0.03774388 0.34885594 0.16902746 -0.12814265 -0.013448893 -0.5723201 -0.28964168
-0.2767483 -0.23156752 0.46642777 -0.0377024 -0.48101357 0.17841765 -0.18222816 -0.15580302
0.17257026 0.19190094 0.23169652 0.22036275 0.06417293 0.013328095 -0.21792743 0.23156135
0.032796513 0.25404954 -0.4872191 0.1171299 -0.18122077 0.45547512 0.2564185 -0.16449228
0.039646894 0.02849995 -0.5630339 -0.4278909 -0.6630268 -0.3076977 -0.43387705 0.08090093
-0.4782824 0.13819939 0.13513948 0.07028618 0.18504786 -0.08770739 0.09489499 0.17381038
0.06694054 0.06634884 -0.024864908 -0.23504645 0.14910671 0.14745027 0.06656252 0.027326947
-0.29057717 0.25589642 -0.013173709 -0.021071149 -0.20203389 0.27386987 -0.01660438 -0.3139089
0.3309506 -0.4709915 -0.27549925 0.28555924 -0.17431587 -0.32268304 0.5554236 -0.49084064
0.061201714 0.121516645 0.22885326 0.14924897 0.3865196 -0.30830503 0.27649343 -0.07096622
-0.24247788 -0.56037736 -0.35825893 0.06449392 0.008730492 -0.028816042 -0.13827129 -0.3496498
-0.54625434 0.12248098 0.3491157 0.52893555 -0.42067793 -0.0054908674 -0.46462783 0.20183061
0.35128725 0.31516936 -0.16473803 -0.23464477 -0.061065532 0.22466046 -0.01853449 0.039556175
0.3434126 -0.24471581 -0.11941907 0.1874358 -0.4933646 0.045688625 -0.30405003 0.076103255
-0.003469326 -0.3599632 0.19456455 -0.07308638 0.17366846 0.33731407 -0.26577052 0.36445868
-0.34698096 -0.29150718 0.17579894 -0.41061416 -0.37694922 0.5785095 0.182013 -0.3696662
-0.5045384 -0.23627533 -0.51619047 0.10860052 -0.11234509 -0.18182136 -0.2576378 -0.43069318
-0.23740071 -0.21516547 -0.09802912 -0.34064037 0.10896454 -0.060576044 0.14225689 -0.022138525
0.21562819 0.36890322 0.16414084 0.17937936 0.2881224 0.02759542 -0.042496443 0.111875415
-0.29544106 -0.2974589 -0.28650957 0.13455564 0.04922525 -0.24962357 0.15889183 -0.06704306
0.1062376 0.12806363 -0.0052077863 0.16505568 0.535418 -0.29720807 -0.59225905 -0.114552274
-0.22422282 -0.41812706 -0.45133427 -0.49798062 -0.06647914 0.14334601 0.39709404 -0.501655
0.26214376 0.16245794 -0.3958222 0.19894207 -0.043785267 -0.5269637 0.24754164 0.11320652
-0.079872504 -0.23666228 0.06748763 0.30271345 -0.33729267 -0.09168298 0.00771047 -0.052174266
0.03063826 -0.5310745 0.0716841 0.15448532 0.18548955 -0.27769557 0.26305842 -0.043163497
-0.20512843 -0.12513207 0.3341226 -0.22103332 0.056452274 0.11336263 -0.33733943 0.046394873
0.2698858 -0.3892313 -0.11065361 0.31578982 0.0871748 -0.4735314 -0.039628424 0.54706705
-0.14584303 -0.47435272 0.037483897 -0.2550735 -0.3431585 -0.5125567 -0.45655212 -0.07896011
-0.31994858 0.34533238 0.41117665 -0.29760242 0.29802468 0.50545895 -0.4350945 -0.1902463
-0.054794867 -0.15511146 -0.3415922 -0.072838016 -0.22608574 0.21366002 0.1680722 -0.46463025
00000000: 1f69 c03d 1d31 093e 1954 473d 6418 a13e
00000010: 0a5a bfbd 3f7a e7be 31e0 783e 3cd1 3bba
00000020: dcfa 63be 69cf 04bd 5203 e8be e308 eb3c
00000030: 3006 893e ee30 bb3e 8e3e 0fbc 23ce 82be
00000040: 4d21 a7be 5499 1abd 3f9d b23e 8915 2d3e
00000050: d437 03be bf58 5cbc 9283 12bf ea4b 94be
00000060: f4b1 8dbe 0920 6dbe 9fcf ee3e d56d 1abd
00000070: 6947 f6be 1eb3 363e 059a 3abe d48a 1fbe
00000080: 42b6 303e ae81 443e da41 6d3e c6a6 613e
00000090: 196d 833d 155e 5a3c 5e28 5fbe 6b1e 6d3e
000000a0: a355 063d c812 823e c874 f9be cde1 ef3d
000000b0: f091 39be 0934 e93e 4949 833e aa70 28be
000000c0: c864 223d ba78 e93c fd22 10bf 8414 dbbe
000000d0: 20bc 29bf 8e8a 9dbe 2225 debe 63af a53d
000000e0: 6ee1 f4be 2484 0d3e 0162 0a3e 33f2 8f3d
000000f0: 307d 3d3e ef9f b3bd 4e58 c23d 59fb 313e
00000100: 1f18 893d e7e1 873d 7eb1 cbbc 04b0 70be
00000110: 6eaf 183e 34fd 163e ee51 883d c3dc df3c
00000120: 88c6 94be db04 833e 8ad6 57bc 679d acbc
00000130: f9e1 4ebe ac38 8c3e e905 88bc abb8 a0be
00000140: 5b72 a93e cc25 f1be 3d0e 8dbe d234 923e
00000150: dc7f 32be b636 a5be 3e30 0e3f 774f fbbe
00000160: a6ae 7a3d b8dd f83d 8258 6a3e b9d4 183e
00000170: e6e5 c53e 28da 9dbe 8c90 8d3e bd56 91bd
00000180: 1f4c 78be e474 0fbf b76d b7be 6315 843d
00000190: 560a 0f3c 9f0f ecbc fd96 0dbe 4c05 b3be
000001a0: 53d7 0bbf 4fd7 fa3d 4bbf b23e 5268 073f
000001b0: 1963 d7be bcec b3bb b3e3 edbe afac 4e3e
000001c0: ecdb b33e e15d a13e 16b1 28be b846 70be
000001d0: da1f 7abd 640d 663e a5d5 97bc a805 223d
000001e0: c7d3 af3e c896 7abe fc91 f4bd 2cef 3f3e
000001f0: 499a fcbe ff23 3b3d 72ac 9bbe 06dc 9b3d
00000200: a25d 63bb 194d b8be ee3b 473e 50ae 95bd
00000210: 25d6 313e 6eb4 ac3e 1313 88be 549a ba3e
00000220: 7da7 b1be 6e40 95be a304 343e 053c d2be
00000230: 7dff c0be 3319 143f 9e61 3a3e e344 bdbe
00000240: 6e29 01bf 29f2 71be 0f25 04bf f369 de3d
00000250: 2f15 e6bd 612f 3abe 1ae9 83be d183 dcbe
00000260: 2c19 73be 5654 5cbe 7ec3 c8bd 6a68 aebe
00000270: cd28 df3d 961e 78bd caab 113e da5b b5bc
00000280: a3cd 5c3e e2e0 bc3e 8914 283e 39af 373e
00000290: c784 933e ca0f e23c c010 2ebd f01e e53d
000002a0: 0d44 97be 884c 98be 62b1 92be f4c8 093e
000002b0: 6aa0 493d 529d 7fbe 8ab4 223e df4d 89bd
000002c0: 1993 d93d 1d23 033e 14a6 aabb 5b04 293e
000002d0: 2711 093f a82b 98be 4a9e 17bf 629a eabd
000002e0: ab9a 65be c014 d6be 4915 e7be 51f7 febe
000002f0: 3726 88bd 4cc9 123e e94f cb3e 766c 00bf
00000300: b537 863e 605b 263e 35a9 cabe 78b7 4b3e
00000310: 2e58 33bd 18e7 06bf 8e7b 7d3e d2d8 e73d
00000320: 3294 a3bd 9957 72be f436 8a3d 42fd 9a3e
00000330: a0b1 acbe 49c4 bbbd 1ca8 fc3b afb4 55bd
00000340: 17fd fa3c 80f4 07bf 1dcf 923d 6631 1e3e
00000350: f9f0 3d3e 1d2e 8ebe 98af 863e 35cc 30bd
00000360: 300d 52be 9f22 00be 1e12 ab3e 8f56 62be
00000370: 803a 673d ab2a e83d c1b7 acbe 8d08 3e3d
00000380: 792e 8a3e 5349 c7be 5c9e e2bd 34af a13e
00000390: b488 b23d b572 f2be 6a51 22bd 960c 0c3f
000003a0: e057 15be 5cde f2be b788 193d fe98 82be
000003b0: 79b2 afbe ea36 03bf 33c1 e9be d7b5 a1bd
000003c0: 4dd0 a3be 68cf b03e bf85 d23e 585f 98be
000003d0: b196 983e c265 013f b5c4 debe edcf 42be
000003e0: 9570 60bd 8ad5 1ebe 2ce5 aebe 192c 95bd
000003f0: 0583 67be b1c9 5a3e 1e1b 2c3e 04e4 edbe

conv1.bias f4 [32]
-0.3276392 -0.16414656 -0.19126925 -0.23147002 -0.31937245 -0.11296662 -0.20274255 -0.3535748
-0.04954992 -0.33048052 -0.23029737 -0.12752683 -0.071210004 -0.32984424 -0.24520113 -0.2163565
0.27245438 -0.030351931 -0.04997863 -0.2388574 -0.2751637 -0.28733718 -0.36739144 -0.30533406
-0.12401523 -0.03721436 -0.1698689 -0.20986804 0.28892785 0.18093069 -0.17975433 -0.04282116
00000000: 53c0 a7be 0916 28be 16dc 43be 7a06 6dbe
00000010: c984 a3be 0b5b e7bd be9b 4fbe c207 b5be
00000020: dbf4 4abd be34 a9be 13d3 6bbe 6596 02be
00000030: 8dd6 91bd 58e1 a8be 0116 7bbe 8f8c 5dbe
00000040: 247f 8b3e 9da4 f8bc 64b6 4cbd 0997 74be
00000050: 42e2 8cbe dc1d 93be bb1a bcbe bf54 9cbe
00000060: b2fb fdbd 166e 18bd 1df2 2dbe a6e7 56be
00000070: 5aee 933e e545 393e 8511 38be 3e65 2fbd

conv2.weight f4 [64, 32, 3, 3]
-0.16450676 -0.1189282 -0.10483679 -0.015904214 -0.09438385 -0.22921534 0.035712592 0.07373067
0.107802786 -0.11244828 0.11582616 0.087611094 -0.16201943 -0.07199842 -0.08443802 0.024765335
-0.0909301 -0.30821326 -0.11847809 -0.15130189 -0.09785518 -0.02533577 -0.25937155 -0.14506428
0.17517929 -0.09162107 -0.3746737 -0.050954886 -0.06437458 -0.00722208 -0.0210653 -0.046752498
-0.18235105 -0.030408936 0.0013721732 -0.19264618 -0.16136888 0.08995433 0.08597707 -0.13836867
-0.3339758 -0.24133547 -0.09752915 -0.16834223 -0.34449998 0.011836561 -0.05923356 0.07009309
-0.023443153 -0.037226476 -0.004776608 0.024986163 -0.036345117 0.028473616 -0.0019329896 -0.08309034
-0.09224099 0.083394155 0.03129615 -0.115463816 0.01357006 0.0817296 -0.064610615 -0.06462333
0.07697945 0.084907584 -0.17032337 -0.19205686 -0.050404698 -0.0010398241 -0.116545215 -0.14749388
-0.19790812 0.0057999035 -0.07477703 -0.22115855 -0.19939305 -0.046606228 0.040735334 -0.1534276
-0.3411285 -0.21242929 -0.024698941 -0.11192562 -0.06975357 -0.17968908 -0.09189746 0.13193627
-0.06628085 -0.1817376 0.11286452 0.019175049 0.029452393 -0.19992566 0.0074178963 0.011010384
-0.08920494 -0.3183162 0.003971187 0.124141075 -0.22788844 -0.22696705 0.11444606 -0.015451529
-0.16829088 -0.08913705 -0.034312673 -0.28125525 -0.11616414 0.078985654 -0.059083734 0.013199735
-0.020996211 0.04857865 0.037055995 -0.13037585 -0.08213138 -0.22695667 -0.12859686 -0.013610279
-0.123221464 -0.124086834 -0.28910407 0.03754242 -0.0051468657 -0.07206586 0.04107656 -0.23384897
-0.083700344 0.12673104 0.0099214865 -0.20215108 -0.09520214 -0.026115403 -0.023269223 -0.12033412
-0.13471091 -0.25078744 -0.08640197 0.046295375 -0.058772743 -0.08242211 0.100651436 0.25857422
0.0866909 0.103335015 0.12503734 0.125217 0.14793022 0.09305086 0.05464117 0.050465688
0.13545983 -0.09075007 -0.037349094 -0.10507447 -0.020509224 -0.15249543 -0.14040443 0.12080366
0.032191493 -0.27177483 -0.0097502675 0.105631635 0.06626851 -0.16238211 -0.083375126 -0.0085917385
0.030211197 -0.054216307 0.0582808 -0.05541713 -0.06441241 -0.084242694 0.0430435 -0.078176044
-0.14831159 0.030843241 0.09650938 -0.14016761 0.063448615 -0.017672654 -0.041668434 0.029057156
0.03107495 -0.04551765 0.050350145 0.04974819 -0.018780794 -0.27487612 -0.2698747 -0.31020653
-0.09592228 -0.13794328 -0.29860935 0.0760497 0.12090519 0.07086974 -0.023133304 0.061463006
-0.029278915 -0.17413168 -0.27387148 -0.022931296 0.018993 -0.17813492 -0.068487115 -0.20659646
-0.036923837 -0.15048362 0.13019459 -0.3104346 -0.11172455 0.07671887 0.046978887 -0.22123751
-0.082482204 0.0017674542 -0.069417655 -0.13346308 -0.099986106 -0.053386774 0.10951318 -0.018835178
-0.25158334 0.10399607 -0.022039486 -0.12880147 0.08437414 0.03355089 -0.00898277 -0.15424044
0.029209044 0.24687466 0.033770915 0.063268945 0.076136895 0.08715734 -0.02095193 0.020207828
0.12484726 0.10682036 -0.12978491 0.0811021 0.07537806 -0.058935508 -0.026941586 0.008710714
-0.038043015 0.01064328 -0.01769958 0.14971842 0.119985595 0.05226004 0.08520742 0.066937625
00000000: 7674 28be a190 f3bd acb4 d6bd 8e49 82bc
00000010: 524c c1bd 6db7 6abe 5e47 123d 1b00 973d
00000020: b5c7 dc3d 494b e6bd 4436 ed3d 726d b33d
00000030: 6ce8 25be e873 93bd d7ed acbd ace0 ca3c
00000040: 8f39 babd 21ce 9dbe a4a4 f2bd e2ee 1abe
00000050: 4c68 c8bd f68c cfbc 59cc 84be bb8b 14be
00000060: 3362 333e d4a3 bbbd 3bd5 bfbe 12b6 50bd
00000070: d2d6 83bd 33a7 ecbb 2391 acbc 8c7f 3fbd
00000080: 3cba 3abe 291c f9bc 7eda b33a 0a45 45be
00000090: e23d 25be fa39 b83d bf14 b03d 84b0 0dbe
000000a0: e0fe aabe a520 77be 5dbd c7bd e861 2cbe
000000b0: 4d62 b0be 23ee 413c e49e 72bd f78c 8f3d
000000c0: db0b c0bc ca7a 18bd 1885 9cbb c8af cc3c
000000d0: 9ede 14bd 8041 e93c 5e5c fdba 452b aabd
000000e0: d8e8 bcbd 8eca aa3d 6430 003d 4b78 ecbd
000000f0: f554 5e3c d961 a73d 9252 84bd 3d59 84bd
00000100: 67a7 9d3d 07e4 ad3d 4069 2ebe 8eaa 44be
00000110: 2875 4ebd b54a 88ba 42af eebd a308 17be
00000120: 6da8 4abe 1e0d be3b b324 99bd 6377 62be
00000130: b12d 4cbe 2ce6 3ebd 18da 263d 201c 1dbe
00000140: 65a8 aebe 1087 59be 6f55 cabc 4239 e5bd
00000150: f6da 8ebd 6a00 38be bc34 bcbd 4d1a 073e
00000160: 41be 87bd 6c19 3abe 8325 e73d fe14 9d3c
00000170: 2546 f13c 50b9 4cbe d311 f33b e664 343c
00000180: 14b1 b6bd 57fa a2be bb20 823b ad3d fe3d
00000190: 965b 69be 0d6a 68be b262 ea3d 6928 7dbc
000001a0: 7254 2cbe 7c8d b6bd 728b 0cbd b000 90be
000001b0: 77e7 edbd 3bc3 a13d c901 72bd b443 583c
000001c0: 3f00 acbc 68fa 463d 07c8 173d 3f81 05be
000001d0: 7f34 a8bd 5467 68be e5ae 03be a6fd 5ebc
000001e0: 895b fcbd 3d21 febd 7305 94be 15c6 193d
000001f0: 0aa7 a8bb 4497 93bd e53f 283d 1b76 6fbe
00000200: 166b abbd c8c5 013e bb8d 223c b100 4fbe
00000210: 57f9 c2bd f8ef d5bc 199f bebc bc71 f6bd
00000220: a8f1 09be 3667 80be 84f3 b0bd 38a0 3d3d
00000230: b0bb 70bd eccc a8bd 5722 ce3d d763 843e
00000240: 008b b13d 4fa1 d33d ca09 003e e338 003e
00000250: 057b 173e 7391 be3d 6bcf 5f3d 1cb5 4e3d
00000260: fbb5 0a3e 2cdb b9bd 5dfb 18bd 4931 d7bd
00000270: f602 a8bc c327 1cbe 2ec6 0fbe e967 f73d
00000280: 3adb 033d 1226 8bbe 96bf 1fbc 6655 d83d
00000290: c9b7 873d 7f47 26be 94c0 aabd 5dc4 0cbc
000002a0: 797d f73c eb11 5ebd d9b7 6e3d 13fd 62bd
000002b0: a7ea 83bd 6f87 acbd 624e 303d c31a a0bd
000002c0: fede 17be f7aa fc3c b6a6 c53d 1988 0fbe
000002d0: 59f1 813d 3ec6 90bc 85ac 2abd 4609 ee3c
000002e0: e590 fe3c b770 3abd f43b 4e3d c2c4 4b3d
000002f0: 2eda 99bc 90bc 8cbe 042d 8abe 64d3 9ebe
00000300: e672 c4bd 0141 0dbe 53e3 98be f2bf 9b3d
00000310: 249d f73d 2724 913d 0e82 bdbc a2c0 7b3d
00000320: 56da efbc 934f 32be e238 8cbe 6ada bbbc
00000330: 3597 9b3c 0069 36be f942 8cbd 068e 53be
00000340: 733d 17bd 6118 1abe bb51 053e 49f1 9ebe
00000350: d7cf e4bd c81e 9d3d ef6c 403d 168c 62be
00000360: 6eec a8bd eca9 e73a d82a 8ebd 8caa 08be
00000370: 84c5 ccbd 17ac 5abd 7248 e03d 3b4c 9abc
00000380: 88cf 80be e4fb d43d 278c b4bc 88e4 03be
00000390: 59cc ac3d a86c 093d 782c 13bc 35f1 1dbe
000003a0: ce47 ef3c b6cc 7c3e 5f53 0a3d 2693 813d
000003b0: a9ed 9b3d 8c7f b23d 62a3 abbc e38a a53c
000003c0: ecaf ff3d a2c4 da3d 56e6 04be dc18 a63d
000003d0: d05f 9a3d 5c66 71bd 9ab4 dcbc 62b7 0e3c
000003e0: fed2 1bbd 2761 2e3c b6fe 90bc c94f 193e
000003f0: 02bb f53d a00e 563d 3a81 ae3d 9816 893d

conv2.bias f4 [64]
0.110493876 -0.038450025 -0.0291705 -0.09668105 0.021861782 -0.005563586 -0.090973295 -0.051797163
-0.04857399 -0.09521488 -0.038548425 -0.018262144 -0.0029272481 -0.0954021 0.0236518 -0.040296387
-0.07838968 0.042108867 -0.00016562513 -0.04563564 0.0067647197 -0.039729934 -0.09328711 -0.04937108
-0.019967709 -0.07496161 -0.058339298 -0.006311403 -0.10311747 -0.05147632 -0.006525411 0.03978026
-0.06951564 -0.1446211 -0.02546932 -0.038795702 -0.11413225 -0.051383115 -0.0052590747 -0.0044242847
-0.034218557 -0.09232693 0.052905925 -0.08096856 0.04797828 0.04438496 -0.08997416 0.009389138
0.020791046 0.024920372 0.0019655267 0.007470431 -0.07050011 -0.034983035 -0.06419203 0.019709602
-0.08774192 -0.1036037 -0.012486992 -0.021986287 -0.06272328 -0.14188688 -0.08186271 -0.13250247
00000000: 9d4a e23d c67d 1dbd f9f6 eebc b700 c6bd
00000010: 7b17 b33c be4e b6bb 3550 babd 4329 54bd
00000020: 85f5 46bd 0500 c3bd f4e4 1dbd 7e9a 95bc
00000030: 13d7 3fbb 2d62 c3bd 6bc1 c13c d30d 25bd
00000040: c58a a0bd 597a 2c3d a8ab 2db9 70ec 3abd
00000050: 95aa dd3b dbbb 22bd 500d bfbd 5439 4abd
00000060: 5293 a3bc 7985 99bd 30f5 6ebd e3cf cebb
00000070: 412f d3bd d5d8 52bd 1dd3 d5bb a0f0 223d
00000080: 375e 8ebd 8e17 14be 09a5 d0bc 3ee8 1ebd
00000090: 2bbe e9bd 1a77 52bd 5154 acbb 97f9 90bb
000000a0: c228 0cbd e715 bdbd e2b3 583d d8d2 a5bd
000000b0: df84 443d 01cd 353d 5f44 b8bd e6d4 193c
000000c0: fc51 aa3c cf25 cc3c 11d0 003b 84ca f43b
000000d0: 5d62 90bd 5f4a 0fbd 1c77 83bd 0876 a13c
000000e0: 09b2 b3bd 2d2e d4bd 3e96 4cbc 961c b4bc
000000f0: 1075 80bd cb4a 11be a3a7 a7bd baae 07be

conv3.weight f4 [128, 64, 3, 3]
-0.22747086 -0.15172593 -0.21775243 -0.10644812 -0.15609564 -0.016738664 -0.043859072 -0.042275652
0.057452098 0.0056294696 -0.040708244 -0.004113742 -0.01877299 0.039451115 0.016075697 0.05525572
0.012977942 -0.028000169 0.06212537 0.10054512 0.08003415 -0.068216056 -0.058234017 0.099281766
-0.054194324 -0.11234033 -0.050402857 0.101820104 0.09120159 0.09503339 -0.06023825 -0.052042305
0.036790043 -0.087947726 -0.30427727 -0.03278007 -0.061139762 -0.08317954 -0.15995538 0.01216519
-0.1429549 -0.09521901 0.0377469 -0.0946 0.090842135 0.033888917 0.09014743 0.066500284
-0.05355583 -0.13324064 -0.10068113 -0.11409214 -0.058546454 -0.056778695 0.13962707 -0.10915012
-0.024037844 -0.029607406 -0.20233163 -0.11374849 0.11466654 -0.04204537 -0.04909187 0.08098962
-0.03763268 0.088544436 -0.028380597 0.011079105 -0.037515003 0.12255086 0.049289312 -0.059598766
0.065295 0.061302636 -0.12678896 0.14562616 -0.016166342 -0.039227955 0.19118543 -0.06511411
-0.08651726 0.054252423 0.012204801 -0.050154984 -0.06366205 -0.27726215 0.06351989 0.08547696
0.040020928 0.05853867 -0.006915829 -0.007105335 0.09905341 0.06614015 -0.01941898 0.16728216
0.095753565 -0.0515344 0.16295616 0.1261034 -0.05353743 -0.031771194 0.13678937 0.022816205
0.051041868 -0.045146763 -0.048694223 0.17896979 -0.018651022 0.031495553 -0.0088114105 -0.008043796
0.017285729 0.005845177 0.024628796 0.01963776 0.037538692 -0.052468177 -0.04411463 -0.110486396
0.015758906 -0.13233474 -0.2345404 -0.12411106 -0.006508846 -0.040071625 0.20419991 0.104417995
-0.09558836 0.12113209 0.013393795 -0.26533937 0.004326275 0.21484931 0.23233306 0.09199479
-0.068086416 0.06943149 -0.052867472 -0.12581581 0.1548124 0.049332332 -0.016015016 0.018632405
-0.139876 -0.10096505 0.08126122 -0.0019917558 -0.16813429 -0.029084442 -0.04822562 -0.079014726
0.08008206 0.059904896 0.014520059 -0.03467903 0.042320028 -0.018849239 -0.09293413 -0.19853204
0.025108648 -0.0019271434 0.0057934164 -0.024943342 -0.04801996 -0.019365964 -0.0034217807 -0.11205923
0.01418951 0.00071446644 0.056352105 0.01516901 -0.005674556 0.011143779 0.009308264 0.026751181
0.008821001 0.004381205 -0.01231353 0.008859034 0.05983925 -0.04238552 0.033404186 -0.19553788
-0.036876716 -0.03906489 -0.021220913 -0.10480151 -0.17142893 -0.19007722 -0.089135095 -0.043510687
-0.0131000765 -0.104502514 -0.098530926 0.031161178 -0.006193322 0.04961328 0.108343765 0.06110355
0.001563411 0.08166642 -0.18352361 0.03681672 0.017990593 0.028469523 -0.056625742 0.11707208
0.059118256 -0.027084531 -0.05982627 0.006479458 0.06744627 0.29916197 0.012943858 0.022110302
0.09469811 -0.014956644 -0.16571796 -0.086723484 -0.03996907 0.16647778 0.03214386 0.073581375
0.1475801 0.019713223 -0.022726426 0.019041643 -0.052229304 0.16425188 -0.054992873 -0.11637346
-0.123993516 -0.26534694 0.116918124 -0.035956845 -0.0414772 0.027430123 -0.02428261 -0.12735638
0.0047279517 -0.0022714427 -0.10071762 0.012363822 -0.05652856 0.03794471 0.046212725 -0.014767536
0.15154828 -0.16841039 0.06832044 0.02532798 -0.003265191 0.010019899 -0.09896692 -0.069739684
00000000: 1fee 68be 0b5e 1bbe 7efa 5ebe 7901 dabd
00000010: 89d7 1fbe 861f 89bc 92a5 33bd 3c29 2dbd
00000020: e452 6b3d 6a77 b83b b0bd 26bd 92cc 86bb
00000030: d0c9 99bc 7e97 213d 2eb1 833c d253 623d
00000040: 6fa1 543c 9c60 e5bc 2c77 7e3d 9aea cd3d
00000050: f2e8 a33d dcb4 8bbd cb86 6ebd 3d54 cb3d
00000060: defa 5dbd b012 e6bd 3a73 4ebd 0f87 d03d
00000070: e6c7 ba3d dea0 c23d 62bc 76bd 502a 55bd
00000080: 28b1 163d f01d b4bd 3bca 9bbe 6544 06bd
00000090: b06d 7abd 095a aabd 58cb 23be 8150 473c
000000a0: c562 12be 2f02 c3bd 7e9c 1a3d a5bd c1bd
000000b0: 710b ba3d 1bcf 0a3d 379f b83d 4d31 883d
000000c0: 5c5d 5bbd 3c70 08be e931 cebd 24a9 e9bd
000000d0: 68ce 6fbd c790 68bd 66fa 0e3e 198a dfbd
000000e0: 03eb c4bc 3b8b f2bc 0630 4fbe f8f4 e8bd
000000f0: 4ad6 ea3d c437 2cbd 8f14 49bd e3dd a53d
00000100: ba24 1abd c956 b53d 6d7e e8bc 2285 353c
00000110: 55a9 19bd f2fb fa3d 97e3 493d d61d 74bd
00000120: 63b9 853d 7918 7b3d f7d4 01be 061f 153e
00000130: 476f 84bc 7ead 20bd 1dc6 433e 8c5a 85bd
00000140: f62f b1bd ca37 5e3d a5f6 473c 506f 4dbd
00000150: 4061 82bd 4ef5 8dbe b716 823d 8b0e af3d
00000160: fcec 233d 3fc6 6f3d 2e9e e2bb dfd3 e8bb
00000170: 84dc ca3d 7d74 873d 8e14 9fbc 044c 2b3e
00000180: 721a c43d bc15 53bd fbdd 263e 4021 013e
00000190: 104a 5bbd 8322 02bd 8312 0c3e 0de9 ba3c
000001a0: 4711 513d d0eb 38bd 9873 47bd db43 373e
000001b0: 07ca 98bc 7b01 013d bc5d 10bc 20ca 03bc
000001c0: cd9a 8d3c e688 bf3b 54c2 c93c 5edf a03c
000001d0: 2cc2 193d dfe8 56bd 8bb1 34bd b146 e2bd
000001e0: d218 813c c282 07be 5c2b 70be f02d febd
000001f0: 2848 d5bb 2522 24bd c819 513e 1ad9 d53d
00000200: d5c3 c3bd 1a14 f83d a671 5b3c 90da 87be
00000210: 6dc3 8d3b 7501 5c3e b8e8 6d3e c467 bc3d
00000220: e470 8bbd 1932 8e3d 908b 58bd dcd5 00be
00000230: 2487 1e3e b310 4a3d ec31 83bc fca2 983c
00000240: a73b 0fbe c4c6 cebd 486c a63d 1e88 02bb
00000250: 652b 2cbe 7f42 eebc 3a88 45bd 79d2 a1bd
00000260: 1002 a43d d65e 753d 8be5 6d3c 990b 0ebd
00000270: c457 2d3d b869 9abc 4054 bebd fc4b 4bbe
00000280: a7b0 cd3c 3498 fcba b3d6 bd3b fb55 ccbc
00000290: 94b0 44bd 5fa5 9ebc f43f 60bb 4f7f e5bd
000002a0: 1e7b 683c 084b 3b3a 77d1 663d 7087 783c
000002b0: a0f1 b9bb 6694 363c b081 183c 4b25 db3c
000002c0: f685 103c 3690 8f3b b0be 49bc 7b25 113c
000002d0: 001a 753d 709c 2dbd d4d2 083d 153b 48be
000002e0: 0a0c 17bd 8202 20bd 7bd7 adbc 2da2 d6bd
000002f0: 118b 2fbe 9aa3 42be 768c b6bd 4338 32bd
00000300: b4a1 56bc 6a05 d6bd 95ca c9bd ba45 ff3c
00000310: 5af1 cabb 4b37 4b3d 56e3 dd3d b747 7a3d
00000320: 5eeb cc3a b940 a73d 9ded 3bbe 21cd 163d
00000330: 0261 933c eb38 e93c 65f0 67bd 7dc3 ef3d
00000340: fc25 723d 61e0 ddbc 640c 75bd a251 d43b
00000350: 4521 8a3d c22b 993e 7a12 543c aa20 b53c
00000360: 15f1 c13d b60c 75bc f8b1 29be 159c b1bd
00000370: 9cb6 23bd 2779 2a3e 48a9 033d d5b1 963d
00000380: 3d1f 173e a07d a13c c52c babc 38fd 9b3c
00000390: 65ee 55bd a531 283e 3540 61bd 3555 eebd
000003a0: 50f0 fdbd 8edb 87be c572 ef3d 7c47 13bd
000003b0: ffe3 29bd 23b5 e03c 53ec c6bc b669 02be
000003c0: efec 9a3b 7cdc 14bb 0a45 cebd a191 4a3c
000003d0: 7e8a 67bd ea6b 1b3d 8e49 3d3d 89f3 71bc
000003e0: 792f 1b3e c673 2cbe 96eb 8b3d a07c cf3c
000003f0: d1fc 55bb 812a 243c 2baf cabd aed3 8ebd

conv3.bias f4 [128]
-0.04552999 -0.024399929 -0.070813805 -0.03448884 -0.022481982 -0.078480445 -0.041574847 -0.05161302
-0.04720189 0.001724385 -0.06538296 -0.001692209 -0.03477474 -0.03770816 -0.06176234 -0.07304862
-0.021244206 -0.08267818 -0.068005905 -0.07225732 -0.064619064 -0.108916916 -0.04397115 -0.08445932
-0.015038711 0.014312252 -0.004762027 -0.10976368 -0.03686059 -0.0024901675 -0.011405448 0.012070608
-0.10011408 -0.12276838 -0.06005277 -0.018808713 -0.05118167 -0.0822171 -0.10009705 -0.042723373
-0.05311052 -0.047813542 -0.011924645 -0.0023991787 -0.018818911 -0.03454397 -0.07498713 -0.0051209517
-0.050528433 -0.100123204 -0.02600943 -0.028092083 -0.07285586 -0.039649896 -0.00089522137 -0.024613945
-0.00020972818 -0.09461775 -0.08756427 -0.09410727 -0.123724096 -0.077740036 -0.09422463 0.005157254
-0.023910226 -0.06742395 -0.056093726 -0.046700727 0.02636774 -0.10525637 -0.070647925 -0.033947296
-0.10633589 -0.01651195 0.03197259 -0.089792885 -0.03184184 -0.034406956 -0.0051183593 -0.0024246767
-0.003316857 -0.07248701 0.0300498 -0.06653492 -0.06272 -0.055443488 -0.043870687 -0.06905768
-0.06534292 0.02339127 -0.09474348 0.017363545 -0.008823936 -0.04367841 -0.07187404 -0.100609496
-0.07349007 -0.046300713 -0.021825308 -0.042177834 -0.027930237 -0.029897854 -0.019005146 -0.066787735
-0.013781322 -0.057480417 -0.009359584 -0.115016535 -0.064133726 -0.046141878 -0.023710229 0.031705156
0.015358563 -0.08349204 -0.014380071 -0.03632639 -0.026344506 -0.058926944 -0.063687295 -0.06890192
-0.010819574 -0.01650705 0.007003493 -0.054339547 0.0097719375 -0.104236536 -0.015536392 -0.10426666
00000000: a87d 3abd 5ce2 c7bc d406 91bd 2b44 0dbd
00000010: 222c b8bc 5bba a0bd 634a 2abd 2d68 53bd
00000020: c556 41bd c204 e23a 80e7 85bd 1dcd ddba
00000030: f56f 0ebd df73 1abd 82fa 7cbd 849a 95bd
00000040: 5408 aebc 2d53 a9bd ae46 8bbd a5fb 93bd
00000050: 0057 84bd d50f dfbd 181b 34bd 02f9 acbd
00000060: ed64 76bc f07d 6a3c c70a 9cbb c8cb e0bd
00000070: 21fb 16bd 1432 23bb ebdd 3abc cdc3 453c
00000080: 9c08 cdbd fd6d fbbd e5f9 75bd bb14 9abc
00000090: dfa3 51bd 7061 a8bd afff ccbd b4fe 2ebd
000000a0: 6b8a 59bd 22d8 43bd 965f 43bc 8a3b 1dbb
000000b0: 1e2a 9abc fa7d 0dbd da92 99bd a8cd a7bb
000000c0: e7f6 4ebd 650d cdbd ba11 d5bc 5e21 e6bc
000000d0: 7435 95bd ee67 22bd 4aad 6aba 2fa3 c9bc
000000e0: 7bea 5bb9 f3c6 c1bd e554 b3bd 50bb c0bd
000000f0: 0f63 fdbd 2b36 9fbd d8f8 c0bd 2ffe a83b
00000100: 61df c3bc 9115 8abd 89c2 65bd 4349 3fbd
00000110: 2901 d83c a790 d7bd dcaf 90bd 520c 0bbd
00000120: a2c6 d9bd 1244 87bc b1f5 023d 55e5 b7bd
00000130: 976c 02bd 4fee 0cbd e9b7 a7bb 53e7 1ebb
00000140: a05f 59bb 1274 94bd 002b f63c 7643 88bd
00000150: 5873 80bd b618 63bd c0b1 33bd 1d6e 8dbd
00000160: 82d2 85bd 0c9f bf3c df08 c2bd fe3d 8e3c
00000170: 4592 10bc 22e8 32bd b232 93bd 5a0c cebd
00000180: f681 96bd d1a5 3dbd fdca b2bc aac2 2cbd
00000190: f4cd e4bc 58ec f4bc aeb0 9bbc 02c8 88bd
000001a0: 0ecb 61bc 9670 6bbd f158 19bc ca8d ebbd
000001b0: 8b58 83bd 44ff 3cbd f43b c2bc 44dd 013d
000001c0: 7ba2 7b3c e0fd aabd 649a 6bbc fbca 14bd
000001d0: 6fd0 d7bc 615d 71bd 7c6e 82bd 731c 8dbd
000001e0: 9544 31bc cb39 87bc 8f7d e53b 2593 5ebd
000001f0: 7a1a 203c f779 d5bd 5a8c 7ebc c289 d5bd

fc1.weight f4 [10, 128]
-0.048026226 -0.08359482 -0.034331933 -0.046774637 -0.024753759 -0.003318251 0.09172286 -0.05851389
-0.21582088 -0.06414098 -0.2764712 0.08299615 -0.06463675 -0.09449266 -0.34315643 0.042731576
-0.07623777 -0.1793972 -0.14865659 -0.018620428 0.05746295 0.098342694 -0.09294568 -0.005442589
-0.09074523 -0.29036775 0.07194486 0.16253676 0.026337706 -0.23395686 0.068008095 0.15079615
-0.2625866 -0.17385222 -0.022918178 0.15307428 -0.17131965 -0.25190434 -0.24126266 0.04019385
0.11787758 0.10074523 0.13948555 -0.082788005 -0.018773898 0.020090578 -0.011528496 0.16861238
-0.09256414 -0.32324222 0.19761164 -0.012142835 0.07639962 -0.020795606 0.07998723 -0.18273474
-0.020149235 0.0756586 -0.074970804 -0.17710197 -0.32508022 -0.27865046 0.04830516 0.105363
0.15483096 0.08471341 0.004790329 -0.11981102 -0.11118478 -0.18274271 -0.20071992 -0.29783788
0.032195617 0.13656802 -0.18422475 0.18399996 0.050062645 -0.0064628897 -0.13480279 0.057700362
-0.14365794 -0.039008405 0.068742484 0.014589419 -0.1748767 -0.031003999 -0.18341045 -0.27945504
-0.09748557 0.13090163 -0.080593064 0.05038554 0.10422081 -0.009967256 0.08882736 -0.12706138
-0.13019311 -0.27696392 0.03346169 -0.25146365 0.13768971 -0.09522599 0.0020382353 -0.27407402
0.09150833 0.12426681 -0.030985717 0.18540038 -0.15414985 -0.2544858 0.06481399 -0.056037348
-0.24788505 -0.07372429 -0.016402757 0.105748266 0.058582798 -0.25463405 0.048532892 -0.11275313
-0.01593234 -0.059863806 -0.066604406 0.022568945 -0.18623823 -0.106516905 0.06689278 -0.17765759
-0.005203193 0.124236025 -0.25786114 -0.065593906 0.13424134 0.04528718 -0.16267395 -0.06511069
0.024354022 -0.0745244 0.056613337 -0.049626023 -0.05024875 0.061883822 -0.15722796 0.09406528
-0.0914887 -0.16311625 0.090735495 -0.0680685 -0.3721202 0.0048642717 -0.05289016 0.10731741
-0.015666997 0.1053027 0.006760438 -0.04182824 0.036011033 0.09218561 -0.037653815 0.05381758
0.05123351 -0.13750507 0.18845016 0.0055914028 -0.08260365 0.09034702 0.1543766 -0.036478154
-0.2297918 -0.25513488 -0.11649881 -0.008983209 -0.099758744 -0.029217074 -0.18079579 0.067898124
-0.1567167 -0.21197584 0.0015426305 0.02639171 -0.25519907 -0.28200924 0.1553195 -0.3276807
0.022018846 -0.13305117 0.12522902 -0.027531307 -0.1517141 -0.10258797 -0.13943927 0.19048195
-0.36628208 -0.3369993 -0.32903194 0.07567349 0.14466782 0.041246355 -0.11105351 0.09286776
0.028027728 -0.36575034 0.14120989 0.015516747 0.038861465 -0.15703024 0.0122893145 -0.23647617
0.06821861 -0.2990712 0.2151368 0.079062894 0.05515863 -0.024865339 0.07101035 -0.14086221
-0.43943432 0.16553117 -0.041198947 0.069436915 -0.38603935 0.0048819594 0.00093057274 0.016434435
0.00628405 -0.2802959 0.1849883 0.09289754 -0.25889283 -0.29004574 0.045946386 -5.0834275e-05
-0.019504791 -0.17022137 -0.18464859 -0.1796068 -0.24676561 -0.19668183 -0.102413684 0.12646255
0.12628694 0.11484687 -0.033045482 -0.20111644 -0.18285806 0.15401863 -0.21996887 -0.011151285
0.006979782 0.015460815 -0.026358612 0.065968245 0.07763207 -0.39593607 -0.081938386 -0.17225799
00000000: 26b7 44bd c333 abbd a49f 0cbd c396 3fbd
00000010: 65c8 cabc 0477 59bb 32d9 bb3d 43ac 6fbd
00000020: 2600 5dbe 595c 83bd a28d 8dbe e3f9 a93d
00000030: 4660 84bd 5e85 c1bd 33b2 afbe 4e07 2f3d
00000040: 8c22 9cbd e6b3 37be 6f39 18be de89 98bc
00000050: 455e 6b3d e567 c93d 4e5a bebd bf57 b2bb
00000060: a3d8 b9bd 15ab 94be d457 933d 0970 263e
00000070: 2cc2 d73c 6392 6fbe d447 8b3d 4e6a 1a3e
00000080: c071 86be 5106 32be e7be bbbc 81bf 1c3e
00000090: 6b6e 2fbe 9bf9 80be 8f0d 77be 4ea2 243d
000000a0: cd69 f13d 8453 ce3d 4dd5 0e3e c28c a9bd
000000b0: b8cb 99bc ff94 a43c 04e2 3cbc b9a8 2c3e
000000c0: 4592 bdbd 0180 a5be b55a 4a3e bef2 46bc
000000d0: 6777 9c3d 8c5b aabc 58d0 a33d d11e 3bbe
000000e0: 0210 a5bc e5f2 9a3d 4b8a 99bd 385a 35be
000000f0: ea70 a6be 46ab 8ebe a2db 453d 8ec8 d73d
00000100: 028c 1e3e 397e ad3d 31f8 9c3b 7b5f f5bd
00000110: d9b4 e3bd e820 3bbe 8689 4dbe 357e 98be
00000120: 8ddf 033d 7dd8 0b3e 6aa5 3cbe 7c6a 3c3e
00000130: 7d0e 4d3d a6c6 d3bb be09 0abe 3757 6c3d
00000140: 111b 13be 47c7 1fbd dcc8 8c3d 7508 6f3c
00000150: e112 33be 19fc fdbc f3cf 3bbe bb14 8fbe
00000160: 84a6 c7bd 140b 063e fa0d a5bd 1161 4e3d
00000170: b871 d53d b44d 23bc 1eeb b53d 611c 02be
00000180: 5851 05be 37ce 8dbe 200f 093d d8bf 80be
00000190: 88fe 0c3e d805 c3bd ea93 053b 6e53 8cbe
000001a0: b868 bb3d 997f fe3d c2d5 fdbc 99d9 3d3e
000001b0: 75d9 1dbe f64b 82be 32bd 843d 6b87 65bd
000001c0: 94d5 7dbe c3fc 96bd 135f 86bc 8c92 d83d
000001d0: 84f4 6f3d 655f 82be 6dca 463d 1deb e6bd
000001e0: 8a84 82bc c033 75bd e467 88bd 82e2 b83c
000001f0: 3cb5 3ebe 8925 dabd 15ff 883d dfeb 35be
00000200: 8c7f aabb 756f fe3d 6006 84be 1956 86bd
00000210: 9076 093e 0d7f 393d 0094 26be c158 85bd
00000220: 1682 c73c 40a0 98bd 63e3 673d a844 4bbd
00000230: a2d1 4dbd e479 7d3d 5e00 21be 4ca5 c03d
00000240: 6d5e bbbd f207 27be 88d3 b93d 7f67 8bbd
00000250: 8a86 bebe 7864 9f3b 5aa3 58bd 3bc9 db3d
00000260: 1358 80bc f1a8 d73d aa86 dd3b 1754 2bbd
00000270: 4e80 133d cfcb bc3d e33a 1abd d36f 5c3d
00000280: 3bda 513d 21ce 0cbe 14f9 403e 1638 b73b
00000290: 1a2c a9bd dc07 b93d e614 1e3e 1e6a 15bd
000002a0: 8b4e 6bbe 0aa1 82be ee96 eebd 4f2e 13bc
000002b0: 504e ccbd a558 efbc 8822 39be 2c0e 8b3d
000002c0: 587a 20be 3210 59be 1732 ca3a 6d33 d83c
000002d0: 74a9 82be 8463 90be 130c 1f3e c4c5 a7be
000002e0: de60 b43c 913e 08be 093c 003e 5689 e1bc
000002f0: f15a 1bbe a419 d2bd 2bc9 0ebe b30d 433e
00000300: 5389 bbbe 2c8b acbe e076 a8be b4fa 9a3d
00000310: cd23 143e f0f1 283d 0670 e3bd 7431 be3d
00000320: 689a e53c a143 bbbe 5399 103e f439 7e3c
00000330: 332d 1f3d 89cc 20be 1f59 493c cf26 72be
00000340: 33b6 8b3d dc1f 99be d24c 5c3e baeb a13d
00000350: 04ee 613d 65b2 cbbc e06d 913d 2f3e 10be
00000360: 89fd e0be 0181 293e 3ac0 28bd f134 8e3d
00000370: f3a6 c5be d8f8 9f3b aef1 733a 82a1 863c
00000380: 6fea cd3b f282 8fbe 936d 3d3e 1141 be3d
00000390: 9a8d 84be e080 94be 4732 3c3d e336 55b8
000003a0: 83c8 9fbc 834e 2ebe 8514 3dbe d8ea 37be
000003b0: 20b0 7cbe f666 49be 44be d1bd 667f 013e
000003c0: 5d51 013e d634 eb3d b35a 07bd 78f1 4dbe
000003d0: 253f 3bbe 0fb7 1d3e 853f 61be e1b3 36bc
000003e0: a8b6 e43b 5c4f 7d3c 04ee d7bc 5c1a 873d
000003f0: 90fd 9e3d 22b8 cabe 50cf a7bd 6664 30be

fc1.bias f4 [10]
0.37038204 0.31485975 -0.2827227 0.13216287 -0.06793255 0.0682742 -0.06424638 0.17712261
-0.08818553 -0.30688846
00000000: b7a2 bd3e 4c35 a13e 08c1 90be b455 073e
00000010: 3920 8bbd 58d3 8b3d 9b93 83bd a15f 353e
00000020: 9d9a b4bd 7c20 9dbe
